Fake_News_Detection.pth (torch, 233216 bytes, 5 tensors)

layer1.weight f4 [128, 384]
4.93e-42 4.948e-42 4.956e-42 4.937e-42 4.913e-42 4.931e-42 -4.948e-42 -4.909e-42
-4.941e-42 -4.948e-42 -4.93e-42 -4.921e-42 4.924e-42 4.926e-42 -4.951e-42 4.951e-42
-4.909e-42 -4.926e-42 4.937e-42 4.926e-42 -4.914e-42 -4.927e-42 4.952e-42 4.951e-42
-4.924e-42 4.934e-42 -4.942e-42 4.92e-42 -4.942e-42 4.928e-42 -5.324e-42 4.954e-42
-4.938e-42 4.909e-42 4.928e-42 -4.919e-42 4.912e-42 4.954e-42 -4.923e-42 4.91e-42
-4.928e-42 5.984e-42 4.951e-42 -4.914e-42 -4.924e-42 4.944e-42 4.916e-42 4.917e-42
-4.921e-42 -4.914e-42 4.927e-42 -4.938e-42 4.934e-42 4.914e-42 4.93e-42 -4.913e-42
4.937e-42 -4.923e-42 -4.909e-42 4.937e-42 4.916e-42 4.948e-42 -4.952e-42 4.931e-42
-4.931e-42 4.923e-42 -4.909e-42 -4.947e-42 -6.021e-42 -4.905e-42 4.906e-42 4.938e-42
-4.941e-42 4.95e-42 4.95e-42 -4.95e-42 -4.956e-42 4.919e-42 4.909e-42 4.952e-42
-4.95e-42 -4.94e-42 4.954e-42 4.913e-42 4.928e-42 -4.935e-42 -4.916e-42 -4.947e-42
-4.947e-42 4.923e-42 4.924e-42 -4.91e-42 4.951e-42 -4.916e-42 -4.91e-42 -4.926e-42
4.928e-42 4.923e-42 -4.909e-42 4.94e-42 -4.926e-42 -4.933e-42 -4.933e-42 4.905e-42
-4.93e-42 -4.93e-42 4.945e-42 -4.947e-42 -4.93e-42 -4.945e-42 -4.91e-42 -4.916e-42
-4.924e-42 4.944e-42 -4.947e-42 4.913e-42 4.91e-42 4.935e-42 4.935e-42 -4.905e-42
-4.935e-42 4.931e-42 -4.944e-42 4.955e-42 4.942e-42 -4.947e-42 -5.04e-42 -1.289455e-13
4.938e-42 -4.907e-42 -4.928e-42 4.928e-42 4.938e-42 -5.531e-42 -4.913e-42 -4.926e-42
4.909e-42 4.933e-42 -4.913e-42 4.95e-42 4.909e-42 -4.912e-42 -4.95e-42 -4.927e-42
-4.909e-42 -4.935e-42 -4.905e-42 -4.947e-42 5.656e-42 -4.956e-42 -4.916e-42 -5.925e-42
-4.92e-42 -4.944e-42 4.935e-42 4.917e-42 4.945e-42 4.941e-42 4.905e-42 4.917e-42
4.926e-42 4.952e-42 -4.907e-42 -4.935e-42 4.909e-42 4.933e-42 -4.933e-42 4.924e-42
-4.942e-42 4.92e-42 4.917e-42 4.92e-42 4.94e-42 -4.913e-42 4.928e-42 -4.91e-42
-4.934e-42 4.924e-42 4.906e-42 4.956e-42 4.928e-42 -4.952e-42 -4.923e-42 4.941e-42
-4.924e-42 4.916e-42 -4.909e-42 4.951e-42 -4.927e-42 -4.928e-42 -4.937e-42 -4.909e-42
-4.921e-42 4.93e-42 -4.937e-42 -4.91e-42 4.924e-42 4.91e-42 4.913e-42 -4.94e-42
-4.937e-42 4.937e-42 4.941e-42 -4.931e-42 4.934e-42 -4.942e-42 4.919e-42 -4.948e-42
-4.951e-42 4.941e-42 -4.912e-42 -4.917e-42 4.93e-42 -4.924e-42 -4.906e-42 -4.916e-42
4.951e-42 -4.909e-42 4.913e-42 -4.947e-42 4.956e-42 4.955e-42 4.951e-42 -1.3665399e-08
4.938e-42 -4.951e-42 4.906e-42 4.905e-42 4.912e-42 -4.945e-42 4.928e-42 -4.934e-42
-4.954e-42 -4.93e-42 4.91e-42 4.919e-42 -4.917e-42 -4.905e-42 -4.956e-42 -4.912e-42
4.921e-42 -4.95e-42 4.906e-42 -4.924e-42 4.927e-42 -4.923e-42 -4.919e-42 -4.948e-42
-4.937e-42 -4.919e-42 4.91e-42 -4.912e-42 4.924e-42 -4.941e-42 -4.921e-42 -4.909e-42
00000000: be0d 0000 cb0d 0000 d10d 0000 c30d 0000
00000010: b20d 0000 bf0d 0000 cb0d 0080 af0d 0080
00000020: c60d 0080 cb0d 0080 be0d 0080 b80d 0080
00000030: ba0d 0000 bb0d 0000 cd0d 0080 cd0d 0000
00000040: af0d 0080 bb0d 0080 c30d 0000 bb0d 0000
00000050: b30d 0080 bc0d 0080 ce0d 0000 cd0d 0000
00000060: ba0d 0080 c10d 0000 c70d 0080 b70d 0000
00000070: c70d 0080 bd0d 0000 d70e 0080 cf0d 0000
00000080: c40d 0080 af0d 0000 bd0d 0000 b60d 0080
00000090: b10d 0000 cf0d 0000 b90d 0080 b00d 0000
000000a0: bd0d 0080 ae10 0000 cd0d 0000 b30d 0080
000000b0: ba0d 0080 c80d 0000 b40d 0000 b50d 0000
000000c0: b80d 0080 b30d 0080 bc0d 0000 c40d 0080
000000d0: c10d 0000 b30d 0000 be0d 0000 b20d 0080
000000e0: c30d 0000 b90d 0080 af0d 0080 c30d 0000
000000f0: b40d 0000 cb0d 0000 ce0d 0080 bf0d 0000
00000100: bf0d 0080 b90d 0000 af0d 0080 ca0d 0080
00000110: c910 0080 ac0d 0080 ad0d 0000 c40d 0000
00000120: c60d 0080 cc0d 0000 cc0d 0000 cc0d 0080
00000130: d10d 0080 b60d 0000 af0d 0000 ce0d 0000
00000140: cc0d 0080 c50d 0080 cf0d 0000 b20d 0000
00000150: bd0d 0000 c20d 0080 b40d 0080 ca0d 0080
00000160: ca0d 0080 b90d 0000 ba0d 0000 b00d 0080
00000170: cd0d 0000 b40d 0080 b00d 0080 bb0d 0080
00000180: bd0d 0000 b90d 0000 af0d 0080 c50d 0000
00000190: bb0d 0080 c00d 0080 c00d 0080 ac0d 0000
000001a0: be0d 0080 be0d 0080 c90d 0000 ca0d 0080
000001b0: be0d 0080 c90d 0080 b00d 0080 b40d 0080
000001c0: ba0d 0080 c80d 0000 ca0d 0080 b20d 0000
000001d0: b00d 0000 c20d 0000 c20d 0000 ac0d 0080
000001e0: c20d 0080 bf0d 0000 c80d 0080 d00d 0000
000001f0: c70d 0000 ca0d 0080 0d0e 0080 032e 11aa
00000200: c40d 0000 ae0d 0080 bd0d 0080 bd0d 0000
00000210: c40d 0000 6b0f 0080 b20d 0080 bb0d 0080
00000220: af0d 0000 c00d 0000 b20d 0080 cc0d 0000
00000230: af0d 0000 b10d 0080 cc0d 0080 bc0d 0080
00000240: af0d 0080 c20d 0080 ac0d 0080 ca0d 0080
00000250: c40f 0000 d10d 0080 b40d 0080 8410 0080
00000260: b70d 0080 c80d 0080 c20d 0000 b50d 0000
00000270: c90d 0000 c60d 0000 ac0d 0000 b50d 0000
00000280: bb0d 0000 ce0d 0000 ae0d 0080 c20d 0080
00000290: af0d 0000 c00d 0000 c00d 0080 ba0d 0000
000002a0: c70d 0080 b70d 0000 b50d 0000 b70d 0000
000002b0: c50d 0000 b20d 0080 bd0d 0000 b00d 0080
000002c0: c10d 0080 ba0d 0000 ad0d 0000 d10d 0000
000002d0: bd0d 0000 ce0d 0080 b90d 0080 c60d 0000
000002e0: ba0d 0080 b40d 0000 af0d 0080 cd0d 0000
000002f0: bc0d 0080 bd0d 0080 c30d 0080 af0d 0080
00000300: b80d 0080 be0d 0000 c30d 0080 b00d 0080
00000310: ba0d 0000 b00d 0000 b20d 0000 c50d 0080
00000320: c30d 0080 c30d 0000 c60d 0000 bf0d 0080
00000330: c10d 0000 c70d 0080 b60d 0000 cb0d 0080
00000340: cd0d 0080 c60d 0000 b10d 0080 b50d 0080
00000350: be0d 0000 ba0d 0080 ad0d 0080 b40d 0080
00000360: cd0d 0000 af0d 0080 b20d 0000 ca0d 0080
00000370: d10d 0000 d00d 0000 cd0d 0000 0fc5 6ab2
00000380: c40d 0000 cd0d 0080 ad0d 0000 ac0d 0000
00000390: b10d 0000 c90d 0080 bd0d 0000 c10d 0080
000003a0: cf0d 0080 be0d 0080 b00d 0000 b60d 0000
000003b0: b50d 0080 ac0d 0080 d10d 0080 b10d 0080
000003c0: b80d 0000 cc0d 0080 ad0d 0000 ba0d 0080
000003d0: bc0d 0000 b90d 0080 b60d 0080 cb0d 0080
000003e0: c30d 0080 b60d 0080 b00d 0000 b10d 0080
000003f0: ba0d 0000 c60d 0080 b80d 0080 af0d 0080

layer1.bias f4 [128]
-1.94578e-06 -0.0043489174 -2.1132156e-13 -0.02538155 -0.023454314 -0.011992305 -0.0027292154 -0.002199562
-0.024185376 -1.7748371e-10 -1.1635079e-11 -0.008616687 -0.010513595 -0.034172133 -2.5149525e-13 -1.8868106e-12
0.00021317972 -7.643709e-07 -1.616066e-07 0.01643923 -0.016748924 -0.0077070114 -4.049529e-06 -4.58592e-05
-0.0005930837 -1.0869006e-09 -9.092766e-17 -2.9212285e-10 -2.393024e-10 -0.0004458446 -1.2771206e-11 -0.06269574
-4.3403494e-09 -2.883348e-08 -0.0030422395 0.09073912 -0.000185942 -6.025855e-19 -0.0124114435 -3.5557926e-10
-0.023099167 -1.104726e-09 -1.1125742e-07 -0.045023054 -3.8338395e-11 0.046497278 -0.019880157 -0.02375
-6.3274685e-10 -6.7616427e-16 -0.011539599 -3.284768e-05 -9.818695e-06 -2.4286806e-05 -0.0023413356 -0.0012947044
-5.7794937e-06 -1.4181992e-10 -4.184845e-09 -7.849819e-07 -2.8543991e-05 -0.10397803 -5.7918314e-08 0.07989794
-3.4885545e-07 -0.026836373 -0.00016819492 -0.006023489 -7.7101424e-07 -0.07028015 -0.07707924 0.07164255
0.058993332 -2.1810463e-13 -0.004530753 -5.910151e-11 -3.103087e-06 0.050787836 2.906457e-10 -0.0017201455
-4.670051e-06 -0.08113942 -1.6661188e-08 -5.7335465e-12 -1.71617e-10 -2.4808316e-05 -0.012690462 -3.996034e-11
-9.229836e-05 -9.363568e-09 -0.048501946 0.043835152 -0.04365396 -0.00024093199 -0.015115277 -0.0012189473
-3.147645e-11 -6.6589014e-06 -0.015777783 -0.0021370125 0.000791572 -2.8895975e-06 -2.6160217e-08 -6.617215e-08
-2.2978146e-09 -1.1825806e-08 0.026717838 -1.04225725e-10 -7.97553e-05 -1.26885325e-05 -1.0023014e-05 -8.5925225e-05
-2.3678217e-06 -6.969884e-07 -1.40317015e-05 -0.02570154 -4.736402e-06 -9.2438973e-10 -0.06919541 -0.008375012
-0.041530814 -0.04260857 -0.006178687 -0.014413859 -8.0695894e-14 -0.031184882 -0.0067362664 -0.01746407
00000000: 3f94 02b6 5d81 8ebb 4bed 6daa f8ec cfbc
00000010: 4323 c0bc 5f7b 44bc a3dc 32bb 8726 10bb
00000020: 6920 c6bc 3925 43af bdaf 4cad 012d 0dbc
00000030: 3741 2cbc 14f8 0bbd 4994 8daa c2c5 04ac
00000040: ff88 5f39 2b2f 4db5 1586 2db4 90ab 863c
00000050: 0a35 89bc 198b fcbb 30e1 87b6 f158 40b8
00000060: 2c79 1bba ea61 95b0 37aa d1a4 a398 a0af
00000070: d28e 83af 40c0 e9b9 66ac 60ad a066 80bd
00000080: 1e22 95b1 7ead f7b2 4f60 47bb 6fd5 b93d
00000090: 6df9 42b9 13da 31a1 5e59 4bbc 557b c3af
000000a0: 773a bdbc 17d5 97b0 6aec eeb3 186a 38bd
000000b0: 329d 28ae ee73 3e3d b6db a2bc 5c8f c2bc
000000c0: 9aed 2db0 1ee4 42a6 9610 3dbc eec5 09b8
000000d0: f9ba 24b7 85bb cbb7 1871 19bb 12b3 a9ba
000000e0: 79ed c1b6 c2ee 1baf 49ca 8fb1 8cb7 52b5
000000f0: c171 efb7 6ff2 d4bd dcc1 78b3 88a1 a33d
00000100: 544a bbb4 f4d7 dbbc 7b5d 30b9 b060 c5bb
00000110: b2f7 4eb5 0aef 8fbd b8db 9dbd 54b9 923d
00000120: fea2 713d 6190 75aa b676 94bb 31f7 81ae
00000130: a13e 50b6 e806 503d bfc8 9f2f 8176 e1ba
00000140: 6fb3 9cb6 6d2c a6bd 571e 8fb2 32bb c9ac
00000150: e4b1 3caf 741b d0b7 a8eb 4fbc 58bf 2fae
00000160: 4e90 c1b8 68dd 20b2 faa9 46bd 7d8c 333d
00000170: 7fce 32bd b0a2 7cb9 11a6 77bc 16c5 9fba
00000180: 556f 0aae 876f dfb6 6940 81bc 1f0d 0cbb
00000190: 7f81 4f3a e8ea 41b6 edb6 e0b2 861a 8eb3
000001a0: 95e7 1db1 722a 4bb2 5edf da3c de31 e5ae
000001b0: 4d42 a7b8 d5e0 54b7 8428 28b7 c132 b4b8
000001c0: dee6 1eb6 ae18 3bb5 b369 6bb7 098c d2bc
000001d0: 62ed 9eb6 2518 7eb0 53b6 8dbd 5937 09bc
000001e0: 371c 2abd 5386 2ebd 9576 cabb 1b28 6cbc
000001f0: 04b6 b5a9 7077 ffbc e6bb dcbb cf10 8fbc

layer2.weight f4 [64, 128]
4.913e-42 2.0174968e-12 -9.1704556e-15 0.15206873 -1.1988459e-06 -5.141955e-09 -3.9407048e-29 1.5762868e-27
-1.2691453e-07 -4.0628244e-15 7.158906e-15 -9.6258574e-29 -3.2531111e-09 0.01651299 -2.3275814e-20 4.913e-42
-2.2949702e-05 4.916e-42 4.931e-42 -0.15919909 3.2116614e-06 -2.969526e-10 -4.921e-42 4.907e-42
-4.907e-42 4.937e-42 8.78429e-24 1.8147257e-13 4.948e-42 -4.979e-42 -1.9257436e-16 0.16423811
-8.1717636e-17 -7.646424e-08 -1.9754196e-21 -0.13642615 4.959e-42 1.5729145e-24 0.00018840363 1.1607333e-16
7.426125e-07 4.945e-42 -3.3283876e-19 -0.14715281 -7.421649e-14 -0.14813846 0.15293065 -1.5473194e-07
-3.0292116e-29 -1.8769173e-27 4.2554196e-09 4.934e-42 -4.927e-42 -9.171767e-08 3.8495493e-22 -5.1371016e-22
-5.036e-42 4.92e-42 9.099505e-12 -4.8015476e-09 -4.912e-42 0.21604143 -4.923e-42 0.17950277
-4.951e-42 -0.14899379 -4.95e-42 -6.6399565e-07 4.948e-42 0.16805628 0.14690995 0.13891974
-0.15085827 -4.934e-42 -2.0148811e-24 -8.9868906e-13 2.7627982e-07 -0.14544596 1.14997335e-11 2.3910611e-26
4.926e-42 0.16048813 -2.0580795e-09 -1.0270658e-21 2.5633328e-28 -4.909e-42 -2.0128186e-07 8.0611e-15
-5.068e-42 -5.085e-42 0.01233263 0.1593781 0.16408283 2.643e-42 5.2789045e-10 1.370121e-39
-4.740772e-12 -4.951e-42 5.9505223e-10 4.956e-42 -0.14316404 -5.843e-42 4.931e-42 4.938e-42
4.942e-42 4.907e-42 0.1668268 -4.296606e-20 -4.91e-42 4.97e-42 3.0713215e-07 -4.944e-42
4.913e-42 -4.92e-42 -2.7703908e-07 -0.00023049915 1.15952115e-32 -2.0558227e-10 0.15708709 0.004814975
0.0008029263 -0.17154655 4.4991444e-19 3.404732e-06 -4.8681506e-21 -0.15330343 0.14825548 -1.7130707e-06
2.9521198e-05 -1.917e-41 1.0072129e-12 2.464834e-10 -6.1742664e-32 -2.3036e-41 -4.242903e-12 -3.954e-42
1.562357e-32 2.621691e-10 -1.0914492e-06 -8.1184716e-08 9.606834e-10 2.6226848e-12 -3.018586e-09 3.9492033e-06
1.9416321e-10 3.1060775e-12 -5.886615e-12 -3.2387867e-08 2.4682006e-10 -3.287e-41 9.241812e-06 1.045476e-11
2.9268e-41 -1.4755573e-11 1.7543118e-12 1.6485988e-08 2.9710172e-11 4.902446e-09 -4.028539e-11 -9.771633e-08
4.8901792e-11 -1.5766256e-06 2.7956643e-05 -1.9742869e-07 -3.818753e-18 -4.5833218e-05 -7.304433e-13 1.9549567e-19
5.580478e-12 4.2772124e-05 -4.5884785e-12 -1.6723382e-07 -5.743359e-13 -8.780824e-08 2.885161e-07 -1.1072934e-32
2.6013497e-17 6.475903e-09 -6.202e-42 7.6158144e-13 2.890453e-25 9.806815e-13 -0.00015722196 5.647033e-16
-5.5102783e-10 -9.402039e-12 -1.044246e-06 -1.5837564e-26 2.9258543e-17 -4.1513914e-07 6.3124295e-10 1.0575708e-07
-1.1925715e-11 -2.4854026e-07 -4.9971078e-12 -1.4068e-41 4.0395404e-12 8.430028e-09 1.2725712e-07 1.6011201e-08
-1.01839895e-07 3.9752807e-13 2.0263e-41 -1.4344039e-12 4.1432894e-12 5.953841e-07 -3.0945323e-08 -2.4706474e-13
-2.714669e-10 2.74261e-07 0.0007929845 8.914132e-06 -1.0941768e-10 7.674306e-09 -5.857e-42 4.152469e-06
4.3215712e-11 -9.1794117e-10 2.6355346e-07 7.609177e-08 -2.9615597e-07 2.7740006e-11 -6.201e-42 -6.3972767e-22
3.3241196e-10 5.1833975e-14 -9.056785e-10 -2.185e-42 4.250713e-09 2.3725377e-27 3.6149956e-06 3.2034e-41
1.0280175e-11 -2.2045663e-08 5.133296e-07 -3.7163e-10 -1.5529054e-11 -8.235918e-10 1.7599979e-13 3.214061e-06
-1.0005985e-09 2.7904e-41 -7.2367675e-06 -1.9682497e-05 7.3887656e-09 2.6915098e-12 -2.966868e-08 -0.000100568526
3.3261638e-12 6.196751e-09 1.1237996e-08 3.257e-41 -5.8794865e-11 -1.8579728e-07 2.8218446e-07 4.6565862e-07
00000000: b20d 0000 fef7 0d2c 4333 25a8 e8b7 1b3e
00000010: 08e8 a0b5 1dad b0b1 46d1 4790 cac5 f912
00000020: 0046 08b4 f160 92a7 a0f6 0028 630b f490
00000030: 568d 5fb1 4046 873c 77d5 db9e b20d 0000
00000040: 1c84 c0b7 b40d 0000 bf0d 0000 1605 23be
00000050: ec87 5736 5d40 a3af b80d 0080 ae0d 0000
00000060: ae0d 0080 c30d 0000 b2e9 2919 e851 4c2a
00000070: cb0d 0000 e10d 0080 eb05 5ea5 092e 283e
00000080: 946d bca4 a934 a4b3 2c42 159d 4cb3 0bbe
00000090: d30d 0000 9065 f317 378e 4539 cdd2 0525
000000a0: f157 4735 c90d 0000 2c79 c4a0 3aaf 16be
000000b0: e51e a7a9 9cb1 17be da99 1c3e 6424 26b4
000000c0: 6a99 1990 68b4 1493 1137 9231 c10d 0000
000000d0: bc0d 0080 53f6 c4b3 e4b0 e81b 6642 1b9c
000000e0: 0a0e 0080 b70d 0000 8714 202d dcfa a4b1
000000f0: b10d 0080 f739 5d3e b90d 0080 93cf 373e
00000100: cd0d 0080 d491 18be cc0d 0080 6f3d 32b5
00000110: cb0d 0000 f216 2c3e 906f 163e fa40 0e3e
00000120: 977a 1abe c10d 0080 d5e4 1b98 5ff5 7cab
00000130: 9c53 9434 c9ef 14be 324e 4a2d 9acc ec14
00000140: bb0d 0000 0057 243e 1e6e 0db1 af34 9b9c
00000150: 7478 a211 af0d 0080 f01f 58b4 4337 1128
00000160: 210e 0080 2d0e 0080 cd0e 4a3c 0334 233e
00000170: 5405 283e 5e07 0000 fd1a 1130 57eb 0e00
00000180: 14cd a6ac cd0d 0080 1491 2330 d10d 0000
00000190: 9899 12be 4a10 0080 bf0d 0000 c40d 0000
000001a0: c70d 0000 ae0d 0000 a5d4 2a3e c8e6 4a9f
000001b0: b00d 0080 db0d 0000 ece3 a434 c80d 0080
000001c0: b20d 0000 b70d 0080 f6bb 94b4 25b2 71b9
000001d0: b8d2 700a 440a 62af 70db 203e f0c6 9d3b
000001e0: 797b 523a e6a9 2fbe 93ca 0421 da7c 6436
000001f0: dde9 b79d 93fb 1cbe 49d0 173e a9ec e5b5
00000200: 4aa4 f737 7035 0080 abc0 8d2b 7481 872f
00000210: 0a4b a08b 3740 0080 ac48 95ac 060b 0080
00000220: 933e a20a 0521 902f e97d 92b5 c557 aeb3
00000230: 0b09 8430 178e 382c 876f 4fb1 6683 8436
00000240: 167c 552f 1e92 5a2c ea1d cfac d61a 0bb3
00000250: d6b0 872f a15b 0080 480d 1b37 0eec 372d
00000260: 9651 0000 99ca 81ad bee5 f62b 129d 8d32
00000270: aeaa 022e 5f72 a831 512d 31ae 1fd8 d1b3
00000280: 8612 572e 719c d3b5 6f84 ea37 c9fc 53b4
00000290: 1ae3 8ca2 0b3d 40b8 fd99 4dab f1cc 6620
000002a0: 7a58 c42c 3866 3338 5771 a1ac e290 33b4
000002b0: 43a9 21ab 1791 bcb3 5ae5 9a34 d1f9 658a
000002c0: a2ee ef23 a582 de31 4a11 0080 ba5d 562b
000002d0: 0ee9 b216 c604 8a2b f3db 24b9 c0c3 2226
000002e0: 2377 17b0 0567 25ad 0528 8cb5 ffd8 9c94
000002f0: 64ee 0624 4ae0 deb4 c683 2d30 921c e333
00000300: a5cc 51ad 1d6f 85b4 f2d1 afac 3727 0080
00000310: f220 8e2c a8d3 1032 2ca4 0834 0189 8932
00000320: 13b3 dab3 d5c9 df2a 7c38 0000 d9df c9ab
00000330: 6fc7 912c 7cd2 1f35 bee8 04b3 c815 8baa
00000340: 923d 95af 253e 9334 4ae0 4f3a e88d 1537
00000350: ae9c f0ae f4d7 0332 5410 0080 7055 8b36
00000360: 9110 3e2e 5e52 7cb0 837e 8d34 e567 a333
00000370: 5eff 9eb4 f100 f42d 4911 0080 8858 419c
00000380: d3be b62f 8170 6929 75f3 78b0 1706 0080
00000390: ab0d 9231 c8f8 3b13 2799 7236 4c59 0000
000003a0: cbd9 342d ed5e bdb2 becb 0935 464e ccaf
000003b0: 5298 88ad 1f63 62b0 7c28 462a 26b1 5736
000003c0: 6e85 89b0 c94d 0000 5cd3 f2b6 d71b a5b7
000003d0: 45e0 fd31 ee65 3d2c 1eda feb2 51e8 d2b8
000003e0: d70e 6a2c 33eb d431 3b11 4132 cb5a 0000
000003f0: 914a 81ae 917f 47b4 237f 9734 a2ff f934

layer2.bias f4 [64]
0.06234718 3.873757e-08 -8.967886e-09 0.085788935 -2.2344304e-05 0.08484348 -2.2074591e-06 0.07053231
0.063713536 0.06745493 0.20289618 0.20209794 0.16750206 0.16267826 0.06363288 0.083911754
0.063210495 0.06398431 0.08074008 0.08616025 0.08254934 0.20469137 0.20138107 0.19095969
0.09962356 0.17957467 0.1989715 0.16555938 -1.5492e-08 -1.5144982e-06 0.0676364 0.15615247
-1.0436897e-05 0.18965907 0.07466393 0.07006342 0.15869331 -2.9690289e-06 0.15782306 -8.064224e-05
0.09012187 0.08113942 -0.00016866975 0.08335098 0.071795434 -1.5226499e-06 0.17585035 0.16399172
0.08563454 0.069459274 0.1702133 -1.2280281e-05 0.084037915 0.2003705 0.17702731 0.18261842
-3.9687675e-05 0.08623063 -1.3027278e-06 -9.4945e-07 0.16190332 0.06730061 -3.9272898e-08 0.1495607
00000000: c25f 7f3d 6960 2633 2e11 1ab2 1cb2 af3d
00000010: 0770 bbb7 6bc2 ad3d dc23 14b6 3e73 903d
00000020: 3e7c 823d cf25 8a3d 04c4 4f3e c3f2 4e3e
00000030: a985 2b3e 2195 263e f551 823d edd9 ab3d
00000040: 8174 813d 350a 833d 0e5b a53d c974 b03d
00000050: a10f a93d 9d9a 513e d736 4e3e f08a 433e
00000060: 7007 cc3d 6ce2 373e 2fbf 4b3e 6688 293e
00000070: 4513 85b2 c345 cbb5 f484 8a3d 6fe6 1f3e
00000080: 221a 2fb7 fd35 423e 67e9 983d 697d 8f3d
00000090: 8080 223e 873f 47b6 5e9c 213e 791e a9b8
000000a0: d191 b83d 6d2c a63d f1dc 30b9 ebb3 aa3d
000000b0: 7c09 933d da5d ccb5 1d12 343e 72ed 273e
000000c0: 2961 af3d aa40 8e3d 654c 2e3e 6807 4eb7
000000d0: 121c ac3d ed2d 4d3e a646 353e 5300 3b3e
000000e0: 5176 26b8 af99 b03d 63d9 aeb5 b5dd 7eb5
000000f0: fcc9 253e e7d4 893d 02ad 28b3 7126 193e

layer3.weight f4 [1, 64]
-0.7655527 -1.8911779e-06 3.780996e-09 -1.0536695 1.4477465e-05 -1.0421844 -8.646744e-07 -0.8661794
-0.7822609 -0.8280351 1.1099404 1.1054248 0.909543 0.88225 -0.78123575 -1.0307521
-0.77613354 -0.78559256 -0.9917391 -1.0581875 -1.0139924 1.1200621 1.1013466 1.0423604
0.5229611 0.97795886 1.0877485 0.89851934 8.979929e-09 -2.088282e-06 -0.83033305 0.84528637
5.543555e-06 1.0349976 -0.9170744 -0.86036587 0.85969836 -5.634498e-07 0.85475004 0.0006647037
-1.1064962 -0.9966785 -0.00038440997 -1.0238225 -0.8816059 -9.2960516e-07 0.95687413 0.8896714
-1.0518076 -0.8529444 0.9248798 1.682515e-05 -1.0323029 1.0956361 0.96354204 0.99517673
9.587356e-05 -1.0590377 3.1734578e-06 -7.73379e-08 0.8778446 -0.8261397 1.4208042e-07 0.8079817
00000000: 43fb 43bf 61d4 fdb5 fee9 8131 a4de 86bf
00000010: 3de4 7237 4c66 85bf f91b 68b5 efbd 5dbf
00000020: 4042 48bf 1cfa 53bf 8712 8e3f 8f7e 8d3f
00000030: cfd7 683f 23db 613f 11ff 47bf afef 83bf
00000040: b0b0 46bf 981c 49bf 9de2 7dbf b072 87bf
00000050: 81ca 81bf 325e 8f3f edf8 8c3f 116c 853f
00000060: c7e0 053f 835b 7a3f 583b 8b3f 5d05 663f
00000070: 2546 1a32 6924 0cb6 b590 54bf b064 583f
00000080: c602 ba36 cd7a 843f 63c5 6abf f040 5cbf
00000090: 3115 5c3f fa3f 17b5 e6d0 5a3f 833f 2e3a
000000a0: aba1 8dbf 5226 7fbf a28a c9b9 9e0c 83bf
000000b0: edb0 61bf fb89 79b5 b4f5 743f 81c1 633f
000000c0: a2a1 86bf 905a 5abf ecc4 6c3f bc23 8d37
000000d0: 8022 84bf ce3d 8c3f b1aa 763f e7c3 7e3f
000000e0: ba0f c938 8c8e 87bf 97f7 5436 f614 a6b3
000000f0: 6cba 603f e47d 53bf c58e 1834 e4d7 4e3f
